Swissmetro case/experiments/AIC/iteration_1/dqn_model.pth (torch, 275676 bytes, 6 tensors)

model.0.weight f4 [128, 264]
00000000: 9f9b afbd 2766 6b3d f200 223d 2e54 aebd
00000010: 32c6 8e3d a480 1c3d 931e 2cbd a1bb bb3c
00000020: 4f62 6dbd d769 8ebc 0235 1f3d b51c adbd
00000030: e622 e13d 85d6 4bbd a36f 1ebd d9e2 6b3c
00000040: 80c8 503d 4b5c 233d 20fe 6ebd a778 3fbd
00000050: 4613 89bd 0f3e 80bd dde0 38bc 427d fb3b
00000060: c107 253d ef68 dc3d 3f97 4a3d b018 55bd
00000070: c2e9 bd3d 1f39 3a3d 8cac 17bd d8d9 47bc
00000080: afec b73d cc2a dfbc 7b22 643a 2cf2 a73d
00000090: de15 a03c ecba 32bc 552e 2abd 8bf0 163e
000000a0: 4f2b d73d fe16 173d e113 c1bc 72d8 dcbd
000000b0: a532 bf3d 218a 633e 7263 9b3c ac65 2d3d
000000c0: dcdf 8b3d 778f af3c 5500 503c f14c 183d
000000d0: 60d4 6e3d 56f6 9ebd 2638 1ebc 9d00 1bbd
000000e0: aafa cfbb a4d8 3c3e 1782 c63c 3f93 0c3c
000000f0: f59e 093e 1870 a13d 7da2 773c 07a5 01bd
00000100: ba0f 83bd a315 b3bc af8d 6bbd c5f4 52bd
00000110: 973e 3fbd 73cd ad3d f8a6 18bd d16b b63b
00000120: 67df 65bd 359e 083c 22d0 4f3d dd6a 203e
00000130: ac49 8e3d 7c59 973d c7f1 0cbc 0190 9bbc
00000140: d25c 263d e47c c0bc 7868 4ebc 53cd 37bd
00000150: bf82 ecbc a646 c03c 1a04 743c 5195 ed3d
00000160: 6721 953d 533a c43c aaee 45bd f2ea 38bd
00000170: a5d0 453d 7c03 523d 17b3 72bd ce50 8fbc
00000180: ddee af3d 9dc1 16be 587a 65bd a262 d93c
00000190: ef30 533d a7ef e6bc 0ae9 0d3d ab7a 8a3e
000001a0: 4202 d8bb 67db 4fbd 29ab fe3c f83a 083d
000001b0: 5233 debd e4bb d5bc 6eac 11bd d2de 033b
000001c0: 1936 ebbd cc25 7d3c bc64 1f3c 9dd4 873d
000001d0: 9738 1abd 0fef 7c3a 69ed 1b3d d91f 153d
000001e0: 185e f139 59f9 0fbd 5575 8abc 4679 ca3d
000001f0: 260f 163e 074b 013e 757b 8abc 6554 933c
00000200: a220 2cbd 2181 063e 9a47 cfbc 97bc 623c
00000210: 517c 71bd ddaa 67bd 6e00 07bc 2b58 efbd
00000220: cbba 6bbd 8f34 36bd d860 4cbd 66b0 563d
00000230: f96c 39bd eea9 de3c fcd0 18bd 18e6 01b9
00000240: 09d5 1c3d e5c3 b4bc a3cc 04bb 9603 383e
00000250: b0a0 56bc 7d2e 23bb 71e7 a2bc d68b 50bd
00000260: 7d99 0b3c d9cd cc3d 9910 ed3c d119 4dbd
00000270: f38b b1bd 1386 f93d a2b7 edbb 5cf8 c33c
00000280: 127e f1bc 176d c83c e6f6 d33c 6039 b4bb
00000290: d90c 243c 946a 613c e94e 0c3d 5614 33bd
000002a0: f221 f1bc 24b6 5e3c 0be5 c23b 8e3c 9bbd
000002b0: f1d9 1b3e 7648 593e 82aa 4bbd 89c1 a73d
000002c0: 31b7 52bd 6c42 023d 129b 05bd ce84 12bd
000002d0: 0f21 98bc 68cd 32bc 061a 453d c160 bd3b
000002e0: 0b1c cb3d cf37 f13d 8aaf 4dbd da6d 0fbd
000002f0: 3538 ea3c 326b e53c 6bc1 693b bdaf f73c
00000300: 8a6c e33c 570a 5cbd 8a1e 6abd a935 c33d
00000310: 3598 b83d 3d86 353d 3e1d 733d f2e5 333d
00000320: 071a 18bd 7dfb 3c3e 95f3 e73a 4073 333c
00000330: fdce 5b3c 6ae8 c5bd 7d9c 02bd 6d0f c6bc
00000340: 749b 82bd f8e4 44bd 9db1 6f3d f5f4 3fbd
00000350: a3b7 39bd 251d b1bc b88d 713d 9931 bbbd
00000360: 6816 0f3d d651 79bd 6fae 393d cb40 9a3c
00000370: 31bc 74bd 253e aabd 3aa1 b03c ee4e 9abd
00000380: 3241 c33c 18ad a13d 758e 4dbd 741c 023d
00000390: 9a49 813d 307b 573d dd61 19bd 1365 b93d
000003a0: 849f 8a3b 6258 79bd b695 a13c 5c82 003e
000003b0: d813 0a3d d534 813c 3536 a13c f49c 3b3c
000003c0: ed23 233d a036 283e 912d f0bc 4947 4cbc
000003d0: 808c 6bbd 1fa4 713e e337 693d 840f 25bd
000003e0: 0e04 693d 8e67 423c 68a2 e0bc a208 993c
000003f0: 83bf 233b 97e1 10bd 0011 27bd f5b0 bf3d
-0.08574604 0.057470467 0.039551683 -0.0851215 0.069713965 0.03820862 -0.042021345 0.022916617
-0.057955083 -0.017384453 0.03886891 -0.08452741 0.109929845 -0.04976513 -0.038680684 0.014397346
0.05097246 0.03988294 -0.05834782 -0.046745922 -0.06693129 -0.06261837 -0.01128408 0.007674844
0.040290598 0.10762202 0.049460646 -0.052025497 0.092731014 0.04546463 -0.037029788 -0.012197934
0.08980691 -0.027242087 0.0008702648 0.082004875 0.019541677 -0.010908823 -0.041548092 0.14740197
0.10506307 0.03688716 -0.02356905 -0.10783471 0.093358316 0.22220661 0.018968318 0.04233329
0.06829807 0.021430714 0.012695392 0.037182752 0.058308005 -0.077618286 -0.0096569415 -0.03784238
-0.00634702 0.18442017 0.024231954 0.008580028 0.13439544 0.07882708 0.015114424 -0.031651523
-0.06399484 -0.021860903 -0.057508167 -0.05150296 -0.04669055 0.08486452 -0.03726861 0.005567052
-0.056121256 0.008338501 0.0507356 0.15665765 0.069476455 0.07390115 -0.008602566 -0.018989565
0.040615864 -0.023497052 -0.0125981495 -0.044873547 -0.028870938 0.023471188 0.014893556 0.116007455
0.072817616 0.023953592 -0.04832331 -0.045145936 0.048294682 0.051272854 -0.059252825 -0.017494585
0.085904814 -0.14722295 -0.05602488 0.02653629 0.05156034 -0.028190447 0.03464607 0.27046713
-0.006592066 -0.050746348 0.031087475 0.033259362 -0.10849632 -0.02609057 -0.035564832 0.0020121825
-0.11484928 0.015450906 0.009728607 0.0663235 -0.037651625 0.00096486596 0.03806821 0.036407325
0.00046037207 -0.035149906 -0.016901651 0.09886412 0.14654216 0.12626277 -0.016904572 0.017984578
-0.04202331 0.13135196 -0.025302697 0.013838909 -0.058956448 -0.056559432 -0.008239849 -0.116867386
-0.057551187 -0.044483718 -0.049897045 0.05241432 -0.04526994 0.027180638 -0.037308678 -0.00012388115
0.038289104 -0.022066066 -0.0020263575 0.17970118 -0.013099834 -0.0024899535 -0.01988575 -0.050914608
0.008520481 0.100002 0.028938578 -0.05007345 -0.08669271 0.12183776 -0.0072545568 0.023922138
-0.02947906 0.02446608 0.025874566 -0.0055000037 0.010012829 0.01375832 0.034254942 -0.043720566
-0.029435132 0.01359323 0.005947714 -0.07579909 0.15219857 0.21219048 -0.049723156 0.08191211
-0.051444236 0.031801626 -0.03261859 -0.035771184 -0.018570451 -0.0109132305 0.04812052 0.005779356
0.09917458 0.11778223 -0.050216235 -0.035016872 0.028591255 0.028005216 0.0035668265 0.030235166
0.027761716 -0.0537208 -0.05715803 0.09531719 0.09013406 0.044317473 0.05935406 0.043920465
-0.037134197 0.1845531 0.0017696494 0.010952771 0.013416049 -0.0966347 -0.03188752 -0.024177277
-0.063773066 -0.048069924 0.058518995 -0.04686447 -0.045341145 -0.021620343 0.058973044 -0.091403194
0.034933478 -0.06086906 0.04533237 0.018829724 -0.059749786 -0.083126344 0.021561254 -0.07534586
0.023834798 0.07894343 -0.050184686 0.031765416 0.063128665 0.052607715 -0.037446845 0.090524815
0.0042304415 -0.060875304 0.019724708 0.12549728 0.03371033 0.015772263 0.019679168 0.011450995
0.039829183 0.16427088 -0.029318603 -0.012468168 -0.057507038 0.23597763 0.056938063 -0.040298
0.056888632 0.01186551 -0.027421191 0.018680874 0.0024985976 -0.03537139 -0.040787697 0.09359924

model.0.bias f4 [128]
00000000: 5600 94bc 2769 b3bd 9c7e 34bd d329 2bbe
00000010: 15e4 d9bd 7d32 16be 4862 79bd d170 07be
00000020: 4ff8 0dbe a292 9fbb db28 1ebe bf0b 35bd
00000030: d1fb 51be 7d4f 6cbe c559 13be 40dc 34be
00000040: 0d19 68bd 8a25 173d e16b a5bd 70f6 48be
00000050: 7d4a aa3b c61a 6bbe 7dc6 4fbe af7b 46be
00000060: 6c75 dfbd d0f3 1b3e ee38 443e 1605 15bd
00000070: bb4c 63be 0a47 2bbe 1d09 a2bd 7f06 82bd
00000080: 594c c93c 2be1 f2bc 5d07 00be c4a9 b4bd
00000090: aec0 97bb e160 75bd 4ffb 79be d556 05be
000000a0: d281 2abe 1baa 68bd c9d7 04be 3e17 3bbe
000000b0: 07ca 853d 93f8 2cbe 7fdc 6abd 18c7 18be
000000c0: 78c0 64be 1542 c1bd 5fcf 76be 97d8 e8bd
000000d0: fb18 7dbe 92a9 33be 03ec 42be 9c91 99bd
000000e0: f4c5 83bd 65e1 72bc 0e99 40be cbcc 53bd
000000f0: c5b4 e0bd aaa2 f93c 616c 2bbe 85e8 42be
00000100: cc57 2cbc d593 82bb 18cc c8bd c87a 9bbc
00000110: b2d3 1cbe 16a7 f9bc b2f4 2dbd 2594 92bd
00000120: 1d0a 84bd b8a7 a23d 16d2 52bc 8507 fcbd
00000130: be76 24bd ab81 d5bd ab62 63bd cf0b 01be
00000140: 0aeb 8bbc 107c 67be 7a4c 16be ce4b 39bc
00000150: 8a51 313e d1e2 90bb 31c1 84be 2def 10bd
00000160: fc65 22be 83fc 4fbe 6fce 97bc d319 49be
00000170: 3888 ccbd f50d 543d fd8a c2bb 5f0b c63c
00000180: 6404 c1bd 536a 4bbd eb3a e3bd d375 48be
00000190: 5477 5dbb e89e f6bd 3a3a 8bbd 0857 cabd
000001a0: e84b acbd 6b67 f9bc 7460 9d3b f13b eebd
000001b0: af79 53be fb9f 9fbb 2eeb 79be 5600 f5bd
000001c0: 87a3 4a3d 3d5b 37be bddd 85be d466 bdbd
000001d0: 4b67 4cbe a4cc 25be 89a0 a7bd 5e4e 5bbd
000001e0: 8317 533e 9fed 6dbe 0709 0cbe ccbc 4abe
000001f0: e94f c5bc 3532 95be d7bc 3abe dbb5 ffbc
-0.018066566 -0.087602906 -0.044066057 -0.16715173 -0.10639206 -0.14667697 -0.060884744 -0.1322663
-0.13864253 -0.004869775 -0.15445273 -0.044200655 -0.20506217 -0.23077197 -0.14389713 -0.17662144
-0.056664515 0.036901034 -0.08077217 -0.19625258 0.005196868 -0.22959432 -0.20290561 -0.19383119
-0.10911068 0.15229726 0.19162342 -0.036381803 -0.22197239 -0.16726318 -0.079118945 -0.06348895
0.024572538 -0.029648384 -0.12502809 -0.08821443 -0.0046311235 -0.059906844 -0.24412273 -0.13021405
-0.16651085 -0.05680285 -0.1297294 -0.18270585 0.06532674 -0.16891699 -0.057339188 -0.14919698
-0.22339046 -0.09436432 -0.24102543 -0.11369436 -0.2471656 -0.17545155 -0.19035344 -0.07498476
-0.06434241 -0.014824246 -0.18808386 -0.051708978 -0.10971979 0.030473072 -0.16740562 -0.19034012
-0.010518979 -0.003984908 -0.09804553 -0.018979445 -0.1531513 -0.03047518 -0.042469688 -0.071571626
-0.064472415 0.07942146 -0.012867471 -0.12306122 -0.040152304 -0.10425123 -0.05551402 -0.12602161
-0.017079849 -0.2260592 -0.14677611 -0.011309577 0.17316261 -0.00442157 -0.25928643 -0.035384346
-0.15859216 -0.2031117 -0.018531052 -0.19638757 -0.09986919 0.051771123 -0.005936979 0.024175344
-0.094246656 -0.049661946 -0.11095222 -0.19576196 -0.003379305 -0.12042028 -0.06798215 -0.09879881
-0.084129155 -0.030444821 0.004802758 -0.11632527 -0.20651887 -0.004871366 -0.2440612 -0.11962955
0.049472358 -0.17905898 -0.26145735 -0.092481285 -0.19961278 -0.16191345 -0.081849165 -0.053541534
0.20614438 -0.23235177 -0.13675319 -0.19798583 -0.024085956 -0.29139867 -0.18236099 -0.031214645

model.2.weight f4 [64, 128]
00000000: 5f1c 16bd f398 a13b c6f0 6b3d 3b30 323d
00000010: a3b7 023d 6081 463d 0114 953d 6fa3 12bd
00000020: 6e55 a6bd be5d 01bc 0a75 1e3c 976b 8a3d
00000030: 5ef5 d4bc e65a 6d3d a39b 9dbd a88b 86bd
00000040: 538c 033d 5a57 84bd c69b 9a3d e325 aebd
00000050: 877b 5ebd 56fa b33c 44f1 cebd a520 5a3d
00000060: 9f13 bc3c e423 79bd 98ef 98bd 25f1 7fbd
00000070: d9b9 1e3d a2c3 3dbd 9b75 f8bc 93d4 2ebb
00000080: a974 ae3c f729 913d fbb4 513d 8b90 97bc
00000090: a65d c53c 2268 64bd aff0 1bbd bb9e 81bd
000000a0: da72 b1bd 2d07 f4bb f124 d8bc d0e5 473d
000000b0: a5a1 143d 7666 1c3d 98ef 96bd d31b 8fbd
000000c0: dfdf 373c fa92 053d e596 8dbd 7387 2ebd
000000d0: dee5 653d 2ec8 f4bc 6791 7abc 914f 113d
000000e0: 704a 5e3c 50e8 9d3d 2628 8abd df20 4a3d
000000f0: 4d58 813d 6f9a 8a3d 1c54 553d 294e 513d
00000100: acbd 81bd 05c7 463b 588d b8ba de72 24bc
00000110: 7cfb d23c d9d9 403b 9b65 433d c294 993d
00000120: df82 75bb 41a9 9bbd 93b5 ac3b fc87 d5bb
00000130: 03dd 7d3d e96e 6e3d 898f 4cbd a31e 813d
00000140: aaec 963d e478 193d 7207 17bd a007 2a3d
00000150: bbce f5bb 345b 12bd c35a 8abc 3a7b 613d
00000160: 3f41 b2bc 1718 083d 1e90 9ebd acf1 a03d
00000170: 166c 43bb df8b 04bd 0030 61bd 82c8 48bd
00000180: a223 03bd 17ba 99bd 89b6 823d b09e eabc
00000190: 900e a7bd 6ee7 6c3d b852 033c adac 15bd
000001a0: a684 633c 157a 92bd e71f 953c 6318 8d3c
000001b0: 5766 3cb8 f42f 043d dfc2 ef3a 41e6 9dbd
000001c0: b09c 4bbb 2211 d3bb 7c6c 91bd 2041 613d
000001d0: fe6a a4bd a7f4 b4bc f86d d4bc 667c b6bd
000001e0: e872 64bd 076a a9bd 0a77 b3bd 4205 6abd
000001f0: b24a 383b cb1a 203c 30ab b1bd b6d4 88bd
00000200: 9989 383d 8c34 88bc c84f f73c c48c adbd
00000210: e771 91bd 91be b93a 8733 c3bd 0dad 91bd
00000220: e170 06bd c72a 67bd b82b cdbc 31f6 54bd
00000230: 0293 17bd e50b cabd dc2a c4bd 4aca 3dbd
00000240: a5d8 203d 3a9d 933c 3cf4 bdbd 1b52 7cbd
00000250: c4e7 203d 52cf 54bc ccc9 1fbd 71fb ffbc
00000260: 404e 55bd d8fa b43b 5b39 65bd 5de4 9d3b
00000270: 7f75 773c 7094 52bd 8f15 45bd ca16 a1bc
00000280: f13c 93bc 8060 a1bc 1079 443d 7a44 39bd
00000290: 6380 3c3d c9b2 90bb beb7 a33c 32f8 093d
000002a0: 0efc 3d3d 41e9 58bd 18f0 75bd 8fd6 9d3c
000002b0: 8c32 05bc 50b3 b03d 606f 4c3c 0416 ed3b
000002c0: 6825 3c3c 78b5 e6bd 370d cbbd cbd5 71bb
000002d0: dc52 93bd 162c d03c 4851 08bd ed92 203c
000002e0: af18 80bd e716 1f3d b22f 4cbd 18fa 703d
000002f0: a10e 173d 5c66 7f3d 1885 c6bc cd5d 7fbc
00000300: 12aa 833c 900e cabd 99d6 3b3c 0c26 d83c
00000310: e91b 723d eb79 9c3c ceb6 80bc 1f03 98bd
00000320: 668d 8fbd aeab 1ebc c948 93bd ab21 14bc
00000330: cb86 593d 488b 5dbd 7252 b9bc 6b77 96bd
00000340: c8c6 8e3d bc5b 7f3c 70ff bdbd 5d6c 90bd
00000350: 972f 97bd cc1c 5d3d 4e44 06bd c2d7 863d
00000360: 5ac6 4cbb d88c 1fbd 52f2 10bd e495 a4bd
00000370: aa42 2dbd ad2d e63c 73af ae3d 1bce 94bd
00000380: d0dc a83d 6bdf 703c f625 4b3d df5a 26bd
00000390: 2802 73bd 269c 4bbc e252 a33c 0703 1ebd
000003a0: afcb d6bd 64f2 d33c df62 22bd 37bb 903d
000003b0: c7ee 193d 0295 03bd 2a47 6ebc ab76 1dbd
000003c0: 8049 74bd 4bc3 26bd 230d 8d3d 3d2c c2bd
000003d0: b7b2 173d 7323 29bb 1130 e23c a8d8 89bd
000003e0: 91a8 a9bd fb2e 203d 9e9b 573d eb37 433d
000003f0: a007 8abd 2e00 23bd 3e02 aabc a707 68bd
-0.03664815 0.004931563 0.057602666 0.043503027 0.03191341 0.048463225 0.07279206 -0.035800394
-0.08121763 -0.007895885 0.009671459 0.067588024 -0.025995906 0.057948016 -0.07695701 -0.06569606
0.032116245 -0.064619735 0.07549243 -0.0850332 -0.054317024 0.021969955 -0.101046115 0.05325379
0.022958575 -0.060825244 -0.07467574 -0.062485833 0.038751457 -0.046329148 -0.030329516 -0.0026676997
0.021295862 0.07088082 0.051197987 -0.01850154 0.024092507 -0.05576337 -0.03807133 -0.063291036
-0.08664484 -0.0074471445 -0.026384803 0.04880315 0.03628697 0.038183652 -0.07369918 -0.06987729
0.011222809 0.03261087 -0.069135465 -0.042609643 0.05612742 -0.02988061 -0.015293456 0.03547627
0.013567552 0.07710326 -0.06745939 0.049347755 0.0631567 0.06767737 0.052082166 0.05109993
-0.06335005 0.0030331027 -0.001408021 -0.010037152 0.025754683 0.0029426722 0.04770432 0.074990764
-0.0037462038 -0.07600642 0.005270669 -0.0065164547 0.06197835 0.05821124 -0.049941573 0.063046716
0.07369359 0.037468806 -0.036872335 0.041511178 -0.007501451 -0.03573151 -0.016888982 0.05504916
-0.021759627 0.0332261 -0.07742332 0.07858595 -0.0029819063 -0.032359954 -0.054977417 -0.049019344
-0.032016404 -0.07506197 0.06382472 -0.028640121 -0.081570745 0.057837896 0.008015327 -0.03654163
0.013886606 -0.071521915 0.018203689 0.017223543 -4.4918004e-05 0.032272294 0.0018292329 -0.07709933
-0.0031068735 -0.0064412514 -0.0710077 0.05499375 -0.0802822 -0.022089316 -0.025931343 -0.08910446
-0.055773646 -0.08272176 -0.08762939 -0.05713392 0.0028120694 0.009772013 -0.086752295 -0.066811964
0.0450531 -0.016626619 0.03018941 -0.084741145 -0.07101803 0.0014171173 -0.095313124 -0.07113085
-0.032822493 -0.05643728 -0.02504526 -0.0519926 -0.037005432 -0.0986555 -0.09578487 -0.046335496
0.03926911 0.018019307 -0.092751 -0.06160174 0.03928353 -0.012988882 -0.039010808 -0.031247826
-0.05207658 0.005523067 -0.0559629 0.004818483 0.015103697 -0.051411092 -0.048116263 -0.019664187
-0.017973395 -0.019699335 0.047967017 -0.04523132 0.046020877 -0.004415844 0.019985076 0.033683963
0.046382956 -0.052956823 -0.060043424 0.019267349 -0.008129727 0.08627951 0.012477726 0.0072352905
0.011483528 -0.11265081 -0.0991463 -0.0036901112 -0.071935385 0.025411647 -0.03328064 0.009800655
-0.06254708 0.0388402 -0.049850173 0.058832258 0.036879186 0.062353477 -0.024233386 -0.015586329
0.016072307 -0.09866059 0.011464738 0.02638533 0.05910865 0.019101104 -0.015712168 -0.0742247
-0.070093915 -0.009684486 -0.07191617 -0.00904123 0.053107064 -0.054087907 -0.02262232 -0.07346996
0.06971508 0.015585836 -0.092772365 -0.07051919 -0.07382124 0.05398254 -0.032779984 0.06584121
-0.0031246156 -0.03895268 -0.035387345 -0.08036402 -0.042299904 0.028097952 0.08529558 -0.07265874
0.08245242 0.0147017045 0.04959675 -0.040614005 -0.05932823 -0.012427365 0.019936983 -0.038577106
-0.10488068 0.025872417 -0.039645072 0.070669584 0.03758123 -0.032124527 -0.014543334 -0.03844325
-0.059640408 -0.04071359 0.06887271 -0.09481094 0.03703567 -0.0025808483 0.02761081 -0.06730777
-0.082841046 0.039107304 0.052638642 0.04766075 -0.067397356 -0.039795093 -0.020753022 -0.056647923

model.2.bias f4 [64]
00000000: 280d babd 44f7 2bbd 8e43 503d 030f eebd
00000010: ef2b 45bd 7c45 94bc 3885 cebd a08c 01be
00000020: 5362 61bd 18fe 0cbe fcb8 b7bd 9ec9 8c3c
00000030: 233d 4ebe e8fb 1ebe ff23 6dbd 70bd ef3b
00000040: 393a 6dbd 9859 ffbc 96d3 0b3e e871 3b3d
00000050: b2e4 133d 6a7f f2bc b7de 8ebd 6bcc f0bd
00000060: 9b88 3a3d 19d5 653d 0ade ebbd 7a15 bebd
00000070: 98fc 933c cb63 56bd 1ed2 053d 9e2b 8ebd
00000080: 6565 2f3c 5d4d 90bd 7620 b5bd db1e cbbd
00000090: 5035 bdbd fd51 98bd b0b0 8f3c 7b03 02be
000000a0: 1fba 413d 08d1 13bd e0f3 a6bd f94e 9abd
000000b0: 44d0 6c3e 8e21 2fbc a6e1 65bd 7544 14bd
000000c0: 3c02 a63d 3d5b 833d 7d2e ea3c 7b0a a3bd
000000d0: cea7 513e 5f21 19bd 0223 4abd 0f9b 99bd
000000e0: 894d c8bd 1678 50bd bfb0 93bc e304 aabd
000000f0: d6f2 0abe a9c1 69bd fcd2 703c 26b4 f5bc
-0.090845406 -0.041983858 0.050845675 -0.11623957 -0.0481376 -0.018099539 -0.10084003 -0.126513
-0.05502541 -0.13768804 -0.0897083 0.017185982 -0.2014051 -0.15525782 -0.057895657 0.007316284
-0.057916854 -0.031170651 0.13654932 0.045762926 0.036106773 -0.029601771 -0.06976073 -0.1175774
0.045540433 0.05611143 -0.1151696 -0.0928144 0.018064782 -0.052341264 0.032671086 -0.06941913
0.010705327 -0.07046006 -0.08844082 -0.099179946 -0.09238684 -0.07437513 0.017540306 -0.1269664
0.04729664 -0.03608802 -0.08151984 -0.07534594 0.23126322 -0.010689152 -0.0561234 -0.0361981
0.08105895 0.06413887 0.02858662 -0.07960983 0.20474169 -0.03738534 -0.049349792 -0.07500278
-0.09780414 -0.050895773 -0.018028615 -0.08301713 -0.13569197 -0.057069454 0.01469874 -0.029993128

model.4.weight f4 [401, 64]
00000000: 7aec c2bd d65f a4bd a0a5 54bd 3c47 e43c
00000010: 0c67 203c c8bf 023e 67c9 8ebd 2b51 eebd
00000020: 1fc6 853c 9a4e cd3d a0c8 4c3d fa36 2d3e
00000030: ab32 1ebd d8e6 1dbd f799 d1bc 4512 60be
00000040: aeb8 0cbd 13a3 20bc b966 e13e 59c9 f63d
00000050: f800 813e 5797 743e e220 663c 303c 64bc
00000060: 350a 923e 0c6f a33e 68ba edbd 4c64 f1bd
00000070: 5a46 6a3d 1319 d63b bd9d 523c e890 d8bd
00000080: 1491 1e3e 7822 4bbd 1205 80bd 2c5c 4ebd
00000090: f5d0 a3bc fc32 013e db15 c63d c3d3 26bd
000000a0: 2d86 463d 0dcc 253e 065e 8e3d 7d0f b53c
000000b0: f7b8 903e 40d9 29bd a8dd 0b3e ff98 09bd
000000c0: 0dab 0dbd 92b9 a53e 6fae eebb c7bf cfbd
000000d0: dd71 aa3e bb9a f53d dbe4 353e 8c9c c8bd
000000e0: 3387 77bd 3104 593d c81d 0e3e 0860 bebd
000000f0: 803a 4bbd d3a2 65bd 57c5 473e 6c79 0c3d
00000100: 4c5e 9cbd 48d3 113e 164b 1ebe aeef b83d
00000110: 09a2 a73d 4605 92bd 8b75 20bd c103 803d
00000120: cf4f 85be 9884 4a3d 2228 13be bacc 353e
00000130: f60d eebd c0e9 39bd abf4 6e3d 20fe 353b
00000140: 14e8 ad3d a22c 9dbc 5ee8 963d b7c5 b3bc
00000150: af0e 28bd 022f e23b 5ba1 8e3d 1a35 06be
00000160: 1de4 3e3d 96df 943d 3e3d c7bd de63 06be
00000170: 9f06 acbd 001a 26be 108a 65be 0646 c3bd
00000180: 4b07 843d 5c1f 0ebd 7bc9 57be beb4 85bd
00000190: 0280 88bd 3cec 433c 6b57 293e e446 9abd
000001a0: 763f 93bd 253e 5abd 9380 b8bd c09b 69bb
000001b0: 1444 c83d 8fa8 dfbd ca48 bd3c 62b5 753d
000001c0: b7fd f03d 4e79 2a3d ac07 2a3d e0b3 11bd
000001d0: 9fc0 cb3d 0d0e 9bbd 74c3 a7bd a49a 843c
000001e0: cab9 45bd f191 c1bd a783 f03d 01c0 9f3d
000001f0: 17cb 84bd 98f8 653d 5028 adbd e1fb 5f3d
00000200: d038 7f3d 687d 4abd aa1d bf3d 94e2 b5bd
00000210: 566a ab3d e88a bcbc f054 b3bd 6668 8ebd
00000220: 7056 f9bc 3a70 cf3d 4464 fabd 2837 d13d
00000230: 404b ff3c 6495 30bd 10ec 573c 88bb dd3d
00000240: 644f 80bd 84f0 013d 70ab 9f3d 40ad d4bb
00000250: d09e e33c ccb8 fd3d a0ec febd 6269 ff3d
00000260: e8b3 28bd 24b7 a2bd 2215 ed3d b0e9 213c
00000270: 4825 9c3d 70a0 413c 201c e9bb e029 c1bc
00000280: a6f2 a9bd acc9 f2bd 40fb 743b a021 123d
00000290: dc7e 6abd 5c07 9abd b2c5 983d 7026 a1bd
000002a0: 00ed fc3d a4ee 313d b24e d63d ccb0 3c3d
000002b0: b6cc b53d 5875 81bd c425 a7bd e476 ebbd
000002c0: a025 c5bb 586c dd3d 40a4 183b 7c2c ae3d
000002d0: 10a8 4a3c c094 b7bb fa66 a63d b059 a33d
000002e0: 98e7 bbbc 7051 a63d 000e c83b 9857 903c
000002f0: da3b f13d 9ccf 47bd 584f 98bd 1c3c 40bd
00000300: d0db cd3d e0be 9f3d 84f5 083d 3c78 d6bd
00000310: 3c43 4bbd c05f 483c 8e87 953d ce21 91bd
00000320: c857 e53d 747e 883d 4a48 f03d 40d5 03bd
00000330: 044d 34bd 5886 e93c 48de b93c 30e4 423d
00000340: daf6 eebd 6449 7b3d 5c24 cbbd 4220 f13d
00000350: e0a7 a33d 4cd0 75bd b6e4 a5bd e605 f03d
00000360: 601e a83b d20e 943d 70a9 f3bd e43d b4bd
00000370: 0023 6c3a a88d ba3d c445 67bd 74f6 c23d
00000380: a417 403d 74d7 ad3d fe12 cc3d 3c1d fcbd
00000390: 2e9f e4bd 4417 93bd a899 033d f4d6 923d
000003a0: 3ac4 ed3d 0024 9cbd 949d e03d 7099 ba3d
000003b0: d8db e43c e019 da3c 3870 d63c 8c7c 2e3d
000003c0: 340f 873d 1c44 693d d293 88bd 6c33 6a3d
000003d0: ec65 4d3d c028 45bc 626e e93d d8bf e63d
000003e0: 70c9 2fbd 6479 293d e097 c6bc 62b5 dc3d
000003f0: e8b8 333d b8ae 96bc 76b8 dc3d 505a f63c
-0.095177606 -0.08026092 -0.051915765 0.027865998 0.009790193 0.12768471 -0.06972008 -0.11636575
0.016329823 0.10024758 0.04999602 0.16915503 -0.03862254 -0.038550228 -0.025586111 -0.2188197
-0.03435581 -0.009804505 0.44023684 0.12050123 0.25196052 0.23885857 0.014045926 -0.013930365
0.28523412 0.3192066 -0.1160782 -0.11786708 0.057196 0.006533751 0.012854991 -0.10574514
0.1548503 -0.04959342 -0.06250967 -0.05038087 -0.0199971 0.12617105 0.09672137 -0.040729295
0.048467804 0.1619112 0.06951527 0.022102112 0.28266117 -0.04146695 0.13658774 -0.033593174
-0.034586955 0.3236814 -0.0072839777 -0.101440005 0.33289996 0.11992403 0.17763083 -0.09795484
-0.06043167 0.052982513 0.13878548 -0.0929566 -0.049616337 -0.056063484 0.19508873 0.034295484
-0.07635173 0.14240754 -0.1545833 0.0903009 0.08185203 -0.07129912 -0.039174598 0.06250716
-0.26037452 0.049442858 -0.14370778 0.17753878 -0.116237566 -0.045388937 0.058338802 0.0027769879
0.08491531 -0.019186322 0.07368539 -0.021944864 -0.04102963 0.0069025764 0.0696437 -0.13106194
0.046604265 0.07269208 -0.09728478 -0.13124034 -0.083997004 -0.16220856 -0.22415948 -0.0953484
0.064467035 -0.034697875 -0.21072952 -0.065286145 -0.066650406 0.011958178 0.16537254 -0.075330526
-0.071898386 -0.053281922 -0.090088986 -0.0035645813 0.0977861 -0.10920822 0.023105998 0.059987433
0.11767142 0.04161959 0.041511223 -0.035571933 0.09948849 -0.07571039 -0.081915766 0.01618702
-0.048272885 -0.09451664 0.11743861 0.07800294 -0.06484049 0.05614528 -0.084549546 0.05468357
0.06231004 -0.049436003 0.0933183 -0.08881107 0.08369891 -0.023015454 -0.08756435 -0.06953506
-0.030436724 0.101288274 -0.122261554 0.10215598 0.031163812 -0.04311122 0.01317884 0.10826784
-0.062651426 0.031723514 0.07796371 -0.0064903796 0.027785689 0.12388763 -0.124474764 0.12471272
-0.041187197 -0.079450876 0.115762964 0.009882376 0.07624298 0.011818036 -0.0071139485 -0.023579538
-0.08298235 -0.11854872 0.0037381202 0.0356766 -0.05724989 -0.07520935 0.074595824 -0.078686595
0.12349892 0.043440476 0.10464229 0.046067044 0.08876936 -0.0632121 -0.081615 -0.11497286
-0.006016448 0.108116806 0.002329126 0.085045785 0.012369171 -0.005602449 0.0812511 0.07976091
-0.022937581 0.08121002 0.0061051846 0.017619893 0.11778994 -0.048781976 -0.074370086 -0.046932325
0.100516915 0.078000784 0.033437267 -0.10472152 -0.049624667 0.01222986 0.07301246 -0.07086526
0.111983836 0.06664744 0.11732538 -0.032185793 -0.04401876 0.028506443 0.022689 0.047580898
-0.11668177 0.061349288 -0.099190444 0.11773731 0.07991004 -0.0600131 -0.08100264 0.11719875
0.005130574 0.07229389 -0.11897552 -0.08800867 0.0009007901 0.0910905 -0.056463018 0.095196635
0.046897545 0.0848836 0.0996456 -0.123102635 -0.111631736 -0.07182172 0.03212896 0.07169905
0.11609693 -0.07624054 0.10967556 0.09111297 0.02793686 0.026623666 0.026176557 0.042599246
0.06594697 0.05694972 -0.066688195 0.057177946 0.05014603 -0.012033641 0.11398007 0.1126706
-0.042916715 0.041375533 -0.024242342 0.107767835 0.043877512 -0.01839386 0.10777371 0.030072361

model.4.bias f4 [401]
00000000: 5b98 8cbb d89f 4e3d 0064 1b39 20f8 993c
00000010: d880 f13d a6c2 ffbd f0b4 7c3c a83c 813c
00000020: 4a95 853d 7421 aabd b856 813c ae42 e43d
00000030: 5047 84bd eee0 8e3d 00c8 98ba 70e4 e8bd
00000040: 4012 47bc 3536 283c 768e 933d 3017 5e3d
00000050: 3738 3c3d 77ae 673d 29cb 953d e969 8e3d
00000060: eabf 663d 010a 903d b5c7 de3d c93f 313d
00000070: d80b 133d f218 b03d 2474 903d 0c50 6a3d
00000080: 21df 623d af77 473d 7d09 5f3d 4eb7 bd3d
00000090: 84e3 b23d 0caf a93d 0068 b03d 8d1d e43d
000000a0: c610 a53d 5c03 953d 15eb cf3d 6899 823d
000000b0: 9433 e13d ffba 2c3d 221a 903d 8bbb f63c
000000c0: ccc8 e13d 332e 0b3d 1578 ab3d 70a9 253d
000000d0: 6ee8 023d 0267 bc3d cb98 433d c6bc d93c
000000e0: c587 713d 1744 963d 8848 643d 102a 993d
000000f0: b968 d93c a751 293d 1fdc 193d 5b54 3f3d
00000100: 1810 6c3d ecc8 0f3e e187 893d d6e8 e23c
00000110: 556a d13c 84e0 413d 8b85 823d e3bd bcbc
00000120: 5502 8f3d 5b3d db3d fe0b 2e3d dca2 0b3d
00000130: fbbf 323d ab4a 8b3a 7899 943d 49ba 663c
00000140: e176 d63c 1854 873d e51a 9a3d cd90 bd3c
00000150: 725a 683d 6141 c83c f959 083d 8665 f33c
00000160: 91ce d23d 153c 903d 8559 9f3c e099 883c
00000170: e7c7 533d c3ac ef3c c389 273d b929 5c3c
00000180: 0886 2e3d 0d75 283d 0145 853d 7858 ea3c
00000190: fa15 753d 4911 c93c 28f3 0a3d f88e 6a3d
000001a0: 852c 403d 0154 3b3d 3570 363d 58d1 ad3c
000001b0: 3774 353d 4c3e 723d 14f9 7c3d 76d5 d33c
000001c0: f6eb e73c 96e0 633d 6f0b d13d d845 1c3d
000001d0: ad3c d93d 366f 97b8 38ff b53d 4643 0fbd
000001e0: 02ea c13d 7419 943d 6fe2 d63d cdbf 8e3d
000001f0: d8e9 cb3d 46bf fb3c 96ca 8f3d 3d65 d43c
00000200: 290f a63d 02a3 923d 0ff6 c53d 8d62 e83d
00000210: 53ac af3d 1195 e73d 435a d03d 58bb 893d
00000220: 8dae ed3d 909c 9dbc 33be 153d 0de5 953d
00000230: 0df2 ca3d e662 023e edcf bd3d 799b a63d
00000240: 3bc0 ed3d 05e3 653d f624 603c 1c9e 3e3c
00000250: aeca 5e3d 3544 313d d95d 5a3d bbfe 4d3c
00000260: ff2c 2c3d 9a36 833d 2f6e 983d dc96 193d
00000270: 2e62 813d cfbd ad3c c40a 6c3d 043a dd3c
00000280: 1123 9d3d 0c31 573c 9663 923d 284f 8b3d
00000290: 1018 933d ceb1 ae3c ca79 363d 3b9e bebb
000002a0: deca a73d 00d8 a33c 43c3 213d edfc d53c
000002b0: bc0b 073d 21b3 3f3c 49fd 7e3d 6fbe 8dbc
000002c0: a7f5 1c3d 3730 723d 0bb2 323d 0383 813d
000002d0: 440e 8d3d 642e 75bc d9ce 8b3d 0e15 523d
000002e0: a5d5 973d 5bb3 b63c 1113 573d 86d2 303c
000002f0: 9fa4 873d a1cd 1bbc a434 0a3d e23b 013d
00000300: f201 8e3d 702c dc3c a14e 843d 762f 263d
00000310: a6fe f03c 1a70 e43c ad35 3c3d cc24 4f3d
00000320: 530b 483d 4688 cf3c d6b7 783d 266d a0bb
00000330: 43f4 673d 864d 403c d5fa a73d 24da f43c
00000340: 919a 8d3d 50c8 4d3d 7579 bc3d 9580 a83d
00000350: 256b a13d 6df2 8a3d c50a 9e3d fcc8 903d
00000360: 116d ab3d 432d 953d 0b2a cd3d 53ec 053e
00000370: 3a3e 8e3d a95c 963d 013b b33d 053c 613d
00000380: 23b0 4c3d 9e7a 6d3d 557a b63d a129 a63c
00000390: f278 a13d 5f0d cd3d e5ab a23d f1a9 cc3d
000003a0: fab4 af3d 3c1f 423c 8956 e83d a893 123d
000003b0: cdb7 c23d 4c8f b03d f796 e13d a831 1a3d
000003c0: 7432 bc3d c1f5 0f3d 5864 a03d 568b 663d
000003d0: b405 1e3d 35df c33c 3f8d 833d 5bd5 8f3d
000003e0: e6cf 413d 3aa4 ff3c ba59 ae3d 0a65 c7b9
000003f0: 239a 933d 90ed faba 080d 733d 6b55 293d
-0.004290623 0.050445408 0.00014819205 0.018795073 0.11792153 -0.12488298 0.015423998 0.015775993
0.06522615 -0.08307162 0.015788421 0.11145531 -0.06458914 0.06976496 -0.0011656284 -0.11371696
-0.012150347 0.01026683 0.07204907 0.054221332 0.04595205 0.056562867 0.0731414 0.069537945
0.056335367 0.07033158 0.10877935 0.04327372 0.035899967 0.08598508 0.07053402 0.057205245
0.055388574 0.048698124 0.054452408 0.09263478 0.087348014 0.08285341 0.086135864 0.11138449
0.0805984 0.072760314 0.1015226 0.06376916 0.10996166 0.04217052 0.070362344 0.030118724
0.11024627 0.033979606 0.08372513 0.04044479 0.031959943 0.09199335 0.047753137 0.026579272
0.05896737 0.07337206 0.055733234 0.07478726 0.026539193 0.041337635 0.03756344 0.046711307
0.057632536 0.1404149 0.0671537 0.027698915 0.025563398 0.047333255 0.063731275 -0.023039764
0.06982867 0.10705062 0.042491905 0.03409086 0.043640118 0.0010627111 0.07255834 0.0140825
0.026179733 0.066078365 0.07524661 0.023140335 0.05672688 0.024445238 0.03328893 0.029711496
0.10293306 0.0704271 0.019451866 0.016674936 0.051704314 0.029257184 0.040902864 0.013437682
0.04260829 0.041127253 0.06507302 0.028606638 0.05983541 0.024544375 0.033923298 0.057265252
0.046917457 0.04573441 0.044540603 0.021217987 0.044300284 0.059141442 0.061760977 0.025858622
0.028310757 0.055634104 0.10207259 0.038152546 0.10607276 -7.220956e-05 0.0888657 -0.034976266
0.094684616 0.07231417 0.104924075 0.06970177 0.099567115 0.030730855 0.07021062 0.02592718
0.0810836 0.071599975 0.096660726 0.11346922 0.0857779 0.11307729 0.10173466 0.06725186
0.116055585 -0.019239694 0.03655834 0.073190786 0.09909449 0.1273304 0.09268174 0.08135123
0.11608931 0.056124706 0.013680687 0.011634376 0.05439251 0.043277938 0.053312156 0.0125729395
0.0420351 0.06406899 0.07442891 0.037497386 0.063175544 0.021208672 0.057627454 0.027005203
0.07672704 0.013134252 0.07147901 0.06802207 0.07182324 0.021325018 0.04454974 -0.0058172024
0.08192991 0.020000458 0.039492857 0.026121581 0.032970175 0.0117004225 0.06225327 -0.01730272
0.03832021 0.059128013 0.043626826 0.063238166 0.068874866 -0.014964674 0.068265624 0.05128961
0.07413796 0.02230232 0.052508418 0.01079238 0.06623196 -0.009509475 0.03374161 0.03155125
0.06933965 0.026876658 0.0646031 0.040572606 0.0294183 0.027885485 0.045949627 0.0505722
0.048838925 0.025333535 0.060722195 -0.004895824 0.05662943 0.011737233 0.08202139 0.029889174
0.06914247 0.05023986 0.092028536 0.0822765 0.07881764 0.0678452 0.07716898 0.07069585
0.08370412 0.072840236 0.10017785 0.13078432 0.069454625 0.07341892 0.087514885 0.05498888
0.049972665 0.057978265 0.08910052 0.020283522 0.078843966 0.10012316 0.079429425 0.09993351
0.085794404 0.011848267 0.1134463 0.035785347 0.095077135 0.08621082 0.110151224 0.037645012
0.09189311 0.03514648 0.07831639 0.056285225 0.038579658 0.023910144 0.06423425 0.07023116
0.047317408 0.031206239 0.08513208 -0.00038031518 0.072071336 -0.0019144285 0.0593386 0.041341227
